…
replay_model_cfg = dict(type='ReplayMemory', capacity=500000)
work_dir = './work_dirs/OpenCabinetDrawer_1000-v0/MBPO'

OpenCabinetDrawer_1000-v0 - INFO - 2022-03-25 00:08:59 - Set random seed to 0
OpenCabinetDrawer_1000-v0 - INFO - 2022-03-25 00:09:04 - State shape:75, action shape:Box(-1.0, 1.0, (13,), float32)
OpenCabinetDrawer_1000-v0 - INFO - 2022-03-25 00:09:09 - We do not use distributed training, but we support data parallel in torch
OpenCabinetDrawer_1000-v0 - INFO - 2022-03-25 00:09:09 - MBPO(
  (policy): ContinuousPolicy(
    (backbone): LinearMLP(
      (mlp): Sequential(
        (linear0): Linear(in_features=75, out_features=256, bias=True)
        (act0): ReLU()
        (linear1): Linear(in_features=256, out_features=256, bias=True)
        (act1): ReLU()
        (linear2): Linear(in_features=256, out_features=256, bias=True)
        (act2): ReLU()
        (linear3): Linear(in_features=256, out_features=26, bias=True)
      )
    )
    (policy_head): GaussianHead()
  )
  (critic): ContinuousValue(
    (values): ModuleList(
      (0): LinearMLP(
        (mlp): Sequential(
          (linear0): Linear(in_features=88, out_features=256, bias=True)
          (act0): ReLU()
          (linear1): Linear(in_features=256, out_features=256, bias=True)
          (act1): ReLU()
          (linear2): Linear(in_features=256, out_features=256, bias=True)
          (act2): ReLU()
          (linear3): Linear(in_features=256, out_features=1, bias=True)
        )
      )
      (1): LinearMLP(
        (mlp): Sequential(
          (linear0): Linear(in_features=88, out_features=256, bias=True)
          (act0): ReLU()
          (linear1): Linear(in_features=256, out_features=256, bias=True)
          (act1): ReLU()
          (linear2): Linear(in_features=256, out_features=256, bias=True)
          (act2): ReLU()
          (linear3): Linear(in_features=256, out_features=1, bias=True)
        )
      )
    )
  )
  (model): Ensemble_model(
    (values): ModuleList(
      (0): LinearMLP(
        (mlp): Sequential(
          (linear0): Linear(in_features=88, out_features=256, bias=True)
          (act0): ReLU()
          (linear1): Linear(in_features=256, out_features=256, bias=True)
          (act1): ReLU()
          (linear2): Linear(in_features=256, out_features=256, bias=True)
          (act2): ReLU()
          (linear3): Linear(in_features=256, out_features=76, bias=True)
        )
      )
      (1): LinearMLP(
        (mlp): Sequential(
          (linear0): Linear(in_features=88, out_features=256, bias=True)
          (act0): ReLU()
          (linear1): Linear(in_features=256, out_features=256, bias=True)
          (act1): ReLU()
          (linear2): Linear(in_features=256, out_features=256, bias=True)
          (act2): ReLU()
          (linear3): Linear(in_features=256, out_features=76, bias=True)
        )
      )
      (2): LinearMLP(
        (mlp): Sequential(
          (linear0): Linear(in_features=88, out_features=256, bias=True)
          (act0): ReLU()
          (linear1): Linear(in_features=256, out_features=256, bias=True)
          (act1): ReLU()
          (linear2): Linear(in_features=256, out_features=256, bias=True)
          (act2): ReLU()
          (linear3): Linear(in_features=256, out_features=76, bias=True)
        )
      )
      (3): LinearMLP(
        (mlp): Sequential(
          (linear0): Linear(in_features=88, out_features=256, bias=True)
          (act0): ReLU()
          (linear1): Linear(in_features=256, out_features=256, bias=True)
          (act1): ReLU()
          (linear2): Linear(in_features=256, out_features=256, bias=True)
          (act2): ReLU()
          (linear3): Linear(in_features=256, out_features=76, bias=True)
        )
      )
      (4): LinearMLP(
        (mlp): Sequential(
          (linear0): Linear(in_features=88, out_features=256, bias=True)
          (act0): ReLU()
          (linear1): Linear(in_features=256, out_features=256, bias=True)
          (act1): ReLU()
          (linear2): Linear(in_features=256, out_features=256, bias=True)
          (act2): ReLU()
          (linear3): Linear(in_features=256, out_features=76, bias=True)
        )
      )
      (5): LinearMLP(
        (mlp): Sequential(
          (linear0): Linear(in_features=88, out_features=256, bias=True)
          (act0): ReLU()
          (linear1): Linear(in_features=256, out_features=256, bias=True)
          (act1): ReLU()
          (linear2): Linear(in_features=256, out_features=256, bias=True)
          (act2): ReLU()
          (linear3): Linear(in_features=256, out_features=76, bias=True)
        )
      )
      (6): LinearMLP(
        (mlp): Sequential(
          (linear0): Linear(in_features=88, out_features=256, bias=True)
          (act0): ReLU()
          (linear1): Linear(in_features=256, out_features=256, bias=True)
          (act1): ReLU()
          (linear2): Linear(in_features=256, out_features=256, bias=True)
          (act2): ReLU()
          (linear3): Linear(in_features=256, out_features=76, bias=True)
        )
      )
    )
  )
  (target_critic): ContinuousValue(
    (values): ModuleList(
      (0): LinearMLP(
        (mlp): Sequential(
          (linear0): Linear(in_features=88, out_features=256, bias=True)
          (act0): ReLU()
          (linear1): Linear(in_features=256, out_features=256, bias=True)
          (act1): ReLU()
          (linear2): Linear(in_features=256, out_features=256, bias=True)
          (act2): ReLU()
          (linear3): Linear(in_features=256, out_features=1, bias=True)
        )
      )
      (1): LinearMLP(
        (mlp): Sequential(
          (linear0): Linear(in_features=88, out_features=256, bias=True)
          (act0): ReLU()
          (linear1): Linear(in_features=256, out_features=256, bias=True)
          (act1): ReLU()
          (linear2): Linear(in_features=256, out_features=256, bias=True)
          (act2): ReLU()
          (linear3): Linear(in_features=256, out_features=1, bias=True)
        )
      )
    )
  )
)
OpenCabinetDrawer_1000-v0 - INFO - 2022-03-25 00:09:09 - Rollout state dim: (8, 75), action dim: 8
OpenCabinetDrawer_1000-v0 - INFO - 2022-03-25 00:09:24 - Finish 4000 warm-up steps!
OpenCabinetDrawer_1000-v0 - INFO - 2022-03-25 00:09:55 - 5600/1000000(1%) Passed time:30s ETA:5h20m12s pred loss:0.06 episode_length:200.00 episode_reward:-2577.92 critic_loss:0.84 max_critic_abs_err:10.60 policy_loss:16.26 alpha:0.80 alpha_loss:17.36 q:-23.31 q_target:-23.20 log_pi:-8.80 memory:8.38G gpu_mem_ratio:64.2% gpu_mem:6.91G gpu_mem_this:1.76G gpu_util:13%
…
