…
replay_model_cfg = dict(type='ReplayMemory', capacity=500000)
work_dir = './work_dirs/OpenCabinetDrawer_1000_link_0-v0/MBPO'

OpenCabinetDrawer_1000_link_0-v0 - INFO - 2022-03-09 10:21:01 - Set random seed to 0
OpenCabinetDrawer_1000_link_0-v0 - INFO - 2022-03-09 10:21:04 - State shape:75, action shape:Box(-1.0, 1.0, (13,), float32)
OpenCabinetDrawer_1000_link_0-v0 - INFO - 2022-03-09 10:21:09 - We do not use distributed training, but we support data parallel in torch
OpenCabinetDrawer_1000_link_0-v0 - INFO - 2022-03-09 10:21:09 - MBPO(
  (policy): ContinuousPolicy(
    (backbone): LinearMLP(
      (mlp): Sequential(
        (linear0): Linear(in_features=75, out_features=256, bias=True)
        (act0): ReLU()
        (linear1): Linear(in_features=256, out_features=256, bias=True)
        (act1): ReLU()
        (linear2): Linear(in_features=256, out_features=256, bias=True)
        (act2): ReLU()
        (linear3): Linear(in_features=256, out_features=26, bias=True)
      )
    )
    (policy_head): GaussianHead()
  )
  (critic): ContinuousValue(
    (values): ModuleList(
      (0): LinearMLP(
        (mlp): Sequential(
          (linear0): Linear(in_features=88, out_features=256, bias=True)
          (act0): ReLU()
          (linear1): Linear(in_features=256, out_features=256, bias=True)
          (act1): ReLU()
          (linear2): Linear(in_features=256, out_features=256, bias=True)
          (act2): ReLU()
          (linear3): Linear(in_features=256, out_features=1, bias=True)
        )
      )
      (1): LinearMLP(
        (mlp): Sequential(
          (linear0): Linear(in_features=88, out_features=256, bias=True)
          (act0): ReLU()
          (linear1): Linear(in_features=256, out_features=256, bias=True)
          (act1): ReLU()
          (linear2): Linear(in_features=256, out_features=256, bias=True)
          (act2): ReLU()
          (linear3): Linear(in_features=256, out_features=1, bias=True)
        )
      )
    )
  )
  (model): Ensemble_model(
    (values): ModuleList(
      (0): LinearMLP(
        (mlp): Sequential(
          (linear0): Linear(in_features=88, out_features=256, bias=True)
          (act0): ReLU()
          (linear1): Linear(in_features=256, out_features=256, bias=True)
          (act1): ReLU()
          (linear2): Linear(in_features=256, out_features=256, bias=True)
          (act2): ReLU()
          (linear3): Linear(in_features=256, out_features=76, bias=True)
        )
      )
      (1): LinearMLP(
        (mlp): Sequential(
          (linear0): Linear(in_features=88, out_features=256, bias=True)
          (act0): ReLU()
          (linear1): Linear(in_features=256, out_features=256, bias=True)
          (act1): ReLU()
          (linear2): Linear(in_features=256, out_features=256, bias=True)
          (act2): ReLU()
          (linear3): Linear(in_features=256, out_features=76, bias=True)
        )
      )
      (2): LinearMLP(
        (mlp): Sequential(
          (linear0): Linear(in_features=88, out_features=256, bias=True)
          (act0): ReLU()
          (linear1): Linear(in_features=256, out_features=256, bias=True)
          (act1): ReLU()
          (linear2): Linear(in_features=256, out_features=256, bias=True)
          (act2): ReLU()
          (linear3): Linear(in_features=256, out_features=76, bias=True)
        )
      )
      (3): LinearMLP(
        (mlp): Sequential(
          (linear0): Linear(in_features=88, out_features=256, bias=True)
          (act0): ReLU()
          (linear1): Linear(in_features=256, out_features=256, bias=True)
          (act1): ReLU()
          (linear2): Linear(in_features=256, out_features=256, bias=True)
          (act2): ReLU()
          (linear3): Linear(in_features=256, out_features=76, bias=True)
        )
      )
      (4): LinearMLP(
        (mlp): Sequential(
          (linear0): Linear(in_features=88, out_features=256, bias=True)
          (act0): ReLU()
          (linear1): Linear(in_features=256, out_features=256, bias=True)
          (act1): ReLU()
          (linear2): Linear(in_features=256, out_features=256, bias=True)
          (act2): ReLU()
          (linear3): Linear(in_features=256, out_features=76, bias=True)
        )
      )
      (5): LinearMLP(
        (mlp): Sequential(
          (linear0): Linear(in_features=88, out_features=256, bias=True)
          (act0): ReLU()
          (linear1): Linear(in_features=256, out_features=256, bias=True)
          (act1): ReLU()
          (linear2): Linear(in_features=256, out_features=256, bias=True)
          (act2): ReLU()
          (linear3): Linear(in_features=256, out_features=76, bias=True)
        )
      )
      (6): LinearMLP(
        (mlp): Sequential(
          (linear0): Linear(in_features=88, out_features=256, bias=True)
          (act0): ReLU()
          (linear1): Linear(in_features=256, out_features=256, bias=True)
          (act1): ReLU()
          (linear2): Linear(in_features=256, out_features=256, bias=True)
          (act2): ReLU()
          (linear3): Linear(in_features=256, out_features=76, bias=True)
        )
      )
    )
  )
  (target_critic): ContinuousValue(
    (values): ModuleList(
      (0): LinearMLP(
        (mlp): Sequential(
          (linear0): Linear(in_features=88, out_features=256, bias=True)
          (act0): ReLU()
          (linear1): Linear(in_features=256, out_features=256, bias=True)
          (act1): ReLU()
          (linear2): Linear(in_features=256, out_features=256, bias=True)
          (act2): ReLU()
          (linear3): Linear(in_features=256, out_features=1, bias=True)
        )
      )
      (1): LinearMLP(
        (mlp): Sequential(
          (linear0): Linear(in_features=88, out_features=256, bias=True)
          (act0): ReLU()
          (linear1): Linear(in_features=256, out_features=256, bias=True)
          (act1): ReLU()
          (linear2): Linear(in_features=256, out_features=256, bias=True)
          (act2): ReLU()
          (linear3): Linear(in_features=256, out_features=1, bias=True)
        )
      )
    )
  )
)
OpenCabinetDrawer_1000_link_0-v0 - INFO - 2022-03-09 10:21:09 - Rollout state dim: (8, 75), action dim: 8
OpenCabinetDrawer_1000_link_0-v0 - INFO - 2022-03-09 10:21:22 - Finish 4000 warm-up steps!
OpenCabinetDrawer_1000_link_0-v0 - INFO - 2022-03-09 10:21:50 - 5600/1000000(1%) Passed time:27s ETA:4h50m3s pred loss:0.70 episode_length:200.00 episode_reward:-2768.17 critic_loss:0.38 max_critic_abs_err:2.55 policy_loss:10.24 alpha:0.80 alpha_loss:17.40 q:-17.28 q_target:-17.21 log_pi:-8.85 memory:8.40G gpu_mem_ratio:76.1% gpu_mem:8.19G gpu_mem_this:1.75G gpu_util:10%
…
