…
OpenCabinetDrawer-v0 - INFO - 2022-05-04 20:54:14 - We do not use distributed training, but we support data parallel in torch
OpenCabinetDrawer-v0 - WARNING - 2022-05-04 20:54:14 - Use Data parallel to train model! It may slow down the speed when the model is small.
OpenCabinetDrawer-v0 - INFO - 2022-05-04 20:54:14 - MBPO(
  (policy): CustomDataParallel(
    (module): ContinuousPolicy(
      (backbone): PointNetWithInstanceInfoV0(
        (pcd_pns): ModuleList(
          (0): PointNetV0(
            (conv_mlp): ConvMLP(
              (mlp): Sequential(
                (layer0): ConvModule(
                  (conv): Conv1d(47, 192, kernel_size=(1,), stride=(1,))
                  (activate): ReLU(inplace=True)
                )
                (layer1): ConvModule(
                  (conv): Conv1d(192, 192, kernel_size=(1,), stride=(1,))
                )
              )
            )
            (global_mlp): LinearMLP(
              (mlp): Sequential(
                (linear0): Linear(in_features=192, out_features=192, bias=True)
                (act0): ReLU()
                (linear1): Linear(in_features=192, out_features=192, bias=True)
              )
            )
          )
          (1): PointNetV0(
            (conv_mlp): ConvMLP(
              (mlp): Sequential(
                (layer0): ConvModule(
                  (conv): Conv1d(47, 192, kernel_size=(1,), stride=(1,))
                  (activate): ReLU(inplace=True)
                )
                (layer1): ConvModule(
                  (conv): Conv1d(192, 192, kernel_size=(1,), stride=(1,))
                )
              )
            )
            (global_mlp): LinearMLP(
              (mlp): Sequential(
                (linear0): Linear(in_features=192, out_features=192, bias=True)
                (act0): ReLU()
                (linear1): Linear(in_features=192, out_features=192, bias=True)
              )
            )
          )
          (2): PointNetV0(
            (conv_mlp): ConvMLP(
              (mlp): Sequential(
                (layer0): ConvModule(
                  (conv): Conv1d(47, 192, kernel_size=(1,), stride=(1,))
                  (activate): ReLU(inplace=True)
                )
                (layer1): ConvModule(
                  (conv): Conv1d(192, 192, kernel_size=(1,), stride=(1,))
                )
              )
            )
            (global_mlp): LinearMLP(
              (mlp): Sequential(
                (linear0): Linear(in_features=192, out_features=192, bias=True)
                (act0): ReLU()
                (linear1): Linear(in_features=192, out_features=192, bias=True)
              )
            )
          )
          (3): PointNetV0(
            (conv_mlp): ConvMLP(
              (mlp): Sequential(
                (layer0): ConvModule(
                  (conv): Conv1d(47, 192, kernel_size=(1,), stride=(1,))
                  (activate): ReLU(inplace=True)
                )
                (layer1): ConvModule(
                  (conv): Conv1d(192, 192, kernel_size=(1,), stride=(1,))
                )
              )
            )
            (global_mlp): LinearMLP(
              (mlp): Sequential(
                (linear0): Linear(in_features=192, out_features=192, bias=True)
                (act0): ReLU()
                (linear1): Linear(in_features=192, out_features=192, bias=True)
              )
            )
          )
          (4): PointNetV0(
            (conv_mlp): ConvMLP(
              (mlp): Sequential(
                (layer0): ConvModule(
                  (conv): Conv1d(47, 192, kernel_size=(1,), stride=(1,))
                  (activate): ReLU(inplace=True)
                )
                (layer1): ConvModule(
                  (conv): Conv1d(192, 192, kernel_size=(1,), stride=(1,))
                )
              )
            )
            (global_mlp): LinearMLP(
              (mlp): Sequential(
                (linear0): Linear(in_features=192, out_features=192, bias=True)
                (act0): ReLU()
                (linear1): Linear(in_features=192, out_features=192, bias=True)
              )
            )
          )
        )
        (attn): TransformerEncoder(
          (attn_blocks): ModuleList(
            (0): TransformerBlock(
              (attn): MultiHeadSelfAttention(
                (dropout): Dropout(p=0.1, inplace=False)
              )
              (mlp): LinearMLP(
                (mlp): Sequential(
                  (linear0): Linear(in_features=192, out_features=768, bias=True)
                  (act0): ReLU()
                  (linear1): Linear(in_features=768, out_features=192, bias=True)
                )
              )
              (ln): LayerNorm((192,), eps=1e-05, elementwise_affine=True)
              (dropout): Dropout(p=0.1, inplace=False)
            )
            (1): TransformerBlock(
              (attn): MultiHeadSelfAttention(
                (dropout): Dropout(p=0.1, inplace=False)
              )
              (mlp): LinearMLP(
                (mlp): Sequential(
                  (linear0): Linear(in_features=192, out_features=768, bias=True)
                  (act0): ReLU()
                  (linear1): Linear(in_features=768, out_features=192, bias=True)
                )
              )
              (ln): LayerNorm((192,), eps=1e-05, elementwise_affine=True)
              (dropout): Dropout(p=0.1, inplace=False)
            )
          )
          (pooling): AttentionPooling(
            (dropout): Identity()
          )
        )
        (state_mlp): LinearMLP(
          (mlp): Sequential(
            (linear0): Linear(in_features=38, out_features=192, bias=True)
            (act0): ReLU()
            (linear1): Linear(in_features=192, out_features=192, bias=True)
          )
        )
        (global_mlp): LinearMLP(
          (mlp): Sequential(
            (linear0): Linear(in_features=192, out_features=128, bias=True)
            (act0): ReLU()
            (linear1): Linear(in_features=128, out_features=26, bias=True)
          )
        )
      )
      (policy_head): GaussianHead()
    )
  )
  (critic): CustomDataParallel(
    (module): ContinuousValue(
      (values): ModuleList(
        (0): PointNetWithInstanceInfoV0(
          (pcd_pns): ModuleList(
            (0): PointNetV0(
              (conv_mlp): ConvMLP(
                (mlp): Sequential(
                  (layer0): ConvModule(
                    (conv): Conv1d(60, 192, kernel_size=(1,), stride=(1,))
                    (activate): ReLU(inplace=True)
                  )
                  (layer1): ConvModule(
                    (conv): Conv1d(192, 192, kernel_size=(1,), stride=(1,))
                  )
                )
              )
              (global_mlp): LinearMLP(
                (mlp): Sequential(
                  (linear0): Linear(in_features=192, out_features=192, bias=True)
                  (act0): ReLU()
                  (linear1): Linear(in_features=192, out_features=192, bias=True)
                )
              )
            )
            (1): PointNetV0(
              (conv_mlp): ConvMLP(
                (mlp): Sequential(
                  (layer0): ConvModule(
                    (conv): Conv1d(60, 192, kernel_size=(1,), stride=(1,))
                    (activate): ReLU(inplace=True)
                  )
                  (layer1): ConvModule(
                    (conv): Conv1d(192, 192, kernel_size=(1,), stride=(1,))
                  )
                )
              )
              (global_mlp): LinearMLP(
                (mlp): Sequential(
                  (linear0): Linear(in_features=192, out_features=192, bias=True)
                  (act0): ReLU()
                  (linear1): Linear(in_features=192, out_features=192, bias=True)
                )
              )
            )
            (2): PointNetV0(
              (conv_mlp): ConvMLP(
                (mlp): Sequential(
                  (layer0): ConvModule(
                    (conv): Conv1d(60, 192, kernel_size=(1,), stride=(1,))
                    (activate): ReLU(inplace=True)
                  )
                  (layer1): ConvModule(
                    (conv): Conv1d(192, 192, kernel_size=(1,), stride=(1,))
                  )
                )
              )
              (global_mlp): LinearMLP(
                (mlp): Sequential(
                  (linear0): Linear(in_features=192, out_features=192, bias=True)
                  (act0): ReLU()
                  (linear1): Linear(in_features=192, out_features=192, bias=True)
                )
              )
            )
            (3): PointNetV0(
              (conv_mlp): ConvMLP(
                (mlp): Sequential(
                  (layer0): ConvModule(
                    (conv): Conv1d(60, 192, kernel_size=(1,), stride=(1,))
                    (activate): ReLU(inplace=True)
                  )
                  (layer1): ConvModule(
                    (conv): Conv1d(192, 192, kernel_size=(1,), stride=(1,))
                  )
                )
              )
              (global_mlp): LinearMLP(
                (mlp): Sequential(
                  (linear0): Linear(in_features=192, out_features=192, bias=True)
                  (act0): ReLU()
                  (linear1): Linear(in_features=192, out_features=192, bias=True)
                )
              )
            )
            (4): PointNetV0(
              (conv_mlp): ConvMLP(
                (mlp): Sequential(
                  (layer0): ConvModule(
                    (conv): Conv1d(60, 192, kernel_size=(1,), stride=(1,))
                    (activate): ReLU(inplace=True)
                  )
                  (layer1): ConvModule(
                    (conv): Conv1d(192, 192, kernel_size=(1,), stride=(1,))
                  )
                )
              )
              (global_mlp): LinearMLP(
                (mlp): Sequential(
                  (linear0): Linear(in_features=192, out_features=192, bias=True)
                  (act0): ReLU()
                  (linear1): Linear(in_features=192, out_features=192, bias=True)
                )
              )
            )
          )
          (attn): TransformerEncoder(
            (attn_blocks): ModuleList(
              (0): TransformerBlock(
                (attn): MultiHeadSelfAttention(
                  (dropout): Dropout(p=0.1, inplace=False)
                )
                (mlp): LinearMLP(
                  (mlp): Sequential(
                    (linear0): Linear(in_features=192, out_features=768, bias=True)
                    (act0): ReLU()
                    (linear1): Linear(in_features=768, out_features=192, bias=True)
                  )
                )
                (ln): LayerNorm((192,), eps=1e-05, elementwise_affine=True)
                (dropout): Dropout(p=0.1, inplace=False)
              )
              (1): TransformerBlock(
                (attn): MultiHeadSelfAttention(
                  (dropout): Dropout(p=0.1, inplace=False)
                )
                (mlp): LinearMLP(
                  (mlp): Sequential(
                    (linear0): Linear(in_features=192, out_features=768, bias=True)
                    (act0): ReLU()
                    (linear1): Linear(in_features=768, out_features=192, bias=True)
                  )
                )
                (ln): LayerNorm((192,), eps=1e-05, elementwise_affine=True)
                (dropout): Dropout(p=0.1, inplace=False)
              )
            )
            (pooling): AttentionPooling(
              (dropout): Identity()
            )
          )
          (state_mlp): LinearMLP(
            (mlp): Sequential(
              (linear0): Linear(in_features=51, out_features=192, bias=True)
              (act0): ReLU()
              (linear1): Linear(in_features=192, out_features=192, bias=True)
            )
          )
          (global_mlp): LinearMLP(
            (mlp): Sequential(
              (linear0): Linear(in_features=192, out_features=128, bias=True)
              (act0): ReLU()
              (linear1): Linear(in_features=128, out_features=1, bias=True)
            )
          )
        )
        (1): PointNetWithInstanceInfoV0(
          (pcd_pns): ModuleList(
            (0): PointNetV0(
              (conv_mlp): ConvMLP(
                (mlp): Sequential(
                  (layer0): ConvModule(
                    (conv): Conv1d(60, 192, kernel_size=(1,), stride=(1,))
                    (activate): ReLU(inplace=True)
                  )
                  (layer1): ConvModule(
                    (conv): Conv1d(192, 192, kernel_size=(1,), stride=(1,))
                  )
                )
              )
              (global_mlp): LinearMLP(
                (mlp): Sequential(
                  (linear0): Linear(in_features=192, out_features=192, bias=True)
                  (act0): ReLU()
                  (linear1): Linear(in_features=192, out_features=192, bias=True)
                )
              )
            )
            (1): PointNetV0(
              (conv_mlp): ConvMLP(
                (mlp): Sequential(
                  (layer0): ConvModule(
                    (conv): Conv1d(60, 192, kernel_size=(1,), stride=(1,))
                    (activate): ReLU(inplace=True)
                  )
                  (layer1): ConvModule(
                    (conv): Conv1d(192, 192, kernel_size=(1,), stride=(1,))
                  )
                )
              )
              (global_mlp): LinearMLP(
                (mlp): Sequential(
                  (linear0): Linear(in_features=192, out_features=192, bias=True)
                  (act0): ReLU()
                  (linear1): Linear(in_features=192, out_features=192, bias=True)
                )
              )
            )
            (2): PointNetV0(
              (conv_mlp): ConvMLP(
                (mlp): Sequential(
                  (layer0): ConvModule(
                    (conv): Conv1d(60, 192, kernel_size=(1,), stride=(1,))
                    (activate): ReLU(inplace=True)
                  )
                  (layer1): ConvModule(
                    (conv): Conv1d(192, 192, kernel_size=(1,), stride=(1,))
                  )
                )
              )
              (global_mlp): LinearMLP(
                (mlp): Sequential(
                  (linear0): Linear(in_features=192, out_features=192, bias=True)
                  (act0): ReLU()
                  (linear1): Linear(in_features=192, out_features=192, bias=True)
                )
              )
            )
            (3): PointNetV0(
              (conv_mlp): ConvMLP(
                (mlp): Sequential(
                  (layer0): ConvModule(
                    (conv): Conv1d(60, 192, kernel_size=(1,), stride=(1,))
                    (activate): ReLU(inplace=True)
                  )
                  (layer1): ConvModule(
                    (conv): Conv1d(192, 192, kernel_size=(1,), stride=(1,))
                  )
                )
              )
              (global_mlp): LinearMLP(
                (mlp): Sequential(
                  (linear0): Linear(in_features=192, out_features=192, bias=True)
                  (act0): ReLU()
                  (linear1): Linear(in_features=192, out_features=192, bias=True)
                )
              )
            )
            (4): PointNetV0(
              (conv_mlp): ConvMLP(
                (mlp): Sequential(
                  (layer0): ConvModule(
                    (conv): Conv1d(60, 192, kernel_size=(1,), stride=(1,))
                    (activate): ReLU(inplace=True)
                  )
                  (layer1): ConvModule(
                    (conv): Conv1d(192, 192, kernel_size=(1,), stride=(1,))
                  )
                )
              )
              (global_mlp): LinearMLP(
                (mlp): Sequential(
                  (linear0): Linear(in_features=192, out_features=192, bias=True)
                  (act0): ReLU()
                  (linear1): Linear(in_features=192, out_features=192, bias=True)
                )
              )
            )
          )
          (attn): TransformerEncoder(
            (attn_blocks): ModuleList(
              (0): TransformerBlock(
                (attn): MultiHeadSelfAttention(
                  (dropout): Dropout(p=0.1, inplace=False)
                )
                (mlp): LinearMLP(
                  (mlp): Sequential(
                    (linear0): Linear(in_features=192, out_features=768, bias=True)
                    (act0): ReLU()
                    (linear1): Linear(in_features=768, out_features=192, bias=True)
                  )
                )
                (ln): LayerNorm((192,), eps=1e-05, elementwise_affine=True)
                (dropout): Dropout(p=0.1, inplace=False)
              )
              (1): TransformerBlock(
                (attn): MultiHeadSelfAttention(
                  (dropout): Dropout(p=0.1, inplace=False)
                )
                (mlp): LinearMLP(
                  (mlp): Sequential(
                    (linear0): Linear(in_features=192, out_features=768, bias=True)
                    (act0): ReLU()
                    (linear1): Linear(in_features=768, out_features=192, bias=True)
                  )
                )
                (ln): LayerNorm((192,), eps=1e-05, elementwise_affine=True)
                (dropout): Dropout(p=0.1, inplace=False)
              )
            )
            (pooling): AttentionPooling(
              (dropout): Identity()
            )
          )
          (state_mlp): LinearMLP(
            (mlp): Sequential(
              (linear0): Linear(in_features=51, out_features=192, bias=True)
              (act0): ReLU()
              (linear1): Linear(in_features=192, out_features=192, bias=True)
            )
          )
          (global_mlp): LinearMLP(
            (mlp): Sequential(
              (linear0): Linear(in_features=192, out_features=128, bias=True)
              (act0): ReLU()
              (linear1): Linear(in_features=128, out_features=1, bias=True)
            )
          )
        )
      )
    )
  )
  (model): CustomDataParallel(
    (module): Pointnet_transformer_model(
      (values): ModuleList(
        (0): PointNetWorldModel(
          (pcd_pns): ModuleList(
            (0): PointNetV0(
              (conv_mlp): ConvMLP(
                (mlp): Sequential(
                  (layer0): ConvModule(
                    (conv): Conv1d(60, 192, kernel_size=(1,), stride=(1,))
                    (activate): ReLU(inplace=True)
                  )
                  (layer1): ConvModule(
                    (conv): Conv1d(192, 192, kernel_size=(1,), stride=(1,))
                  )
                )
              )
              (global_mlp): LinearMLP(
                (mlp): Sequential(
                  (linear0): Linear(in_features=192, out_features=192, bias=True)
                  (act0): ReLU()
                  (linear1): Linear(in_features=192, out_features=192, bias=True)
                )
              )
            )
            (1): PointNetV0(
              (conv_mlp): ConvMLP(
                (mlp): Sequential(
                  (layer0): ConvModule(
                    (conv): Conv1d(60, 192, kernel_size=(1,), stride=(1,))
                    (activate): ReLU(inplace=True)
                  )
                  (layer1): ConvModule(
                    (conv): Conv1d(192, 192, kernel_size=(1,), stride=(1,))
                  )
                )
              )
              (global_mlp): LinearMLP(
                (mlp): Sequential(
                  (linear0): Linear(in_features=192, out_features=192, bias=True)
                  (act0): ReLU()
                  (linear1): Linear(in_features=192, out_features=192, bias=True)
                )
              )
            )
            (2): PointNetV0(
              (conv_mlp): ConvMLP(
                (mlp): Sequential(
                  (layer0): ConvModule(
                    (conv): Conv1d(60, 192, kernel_size=(1,), stride=(1,))
                    (activate): ReLU(inplace=True)
                  )
                  (layer1): ConvModule(
                    (conv): Conv1d(192, 192, kernel_size=(1,), stride=(1,))
                  )
                )
              )
              (global_mlp): LinearMLP(
                (mlp): Sequential(
                  (linear0): Linear(in_features=192, out_features=192, bias=True)
                  (act0): ReLU()
                  (linear1): Linear(in_features=192, out_features=192, bias=True)
                )
              )
            )
            (3): PointNetV0(
              (conv_mlp): ConvMLP(
                (mlp): Sequential(
                  (layer0): ConvModule(
                    (conv): Conv1d(60, 192, kernel_size=(1,), stride=(1,))
                    (activate): ReLU(inplace=True)
                  )
                  (layer1): ConvModule(
                    (conv): Conv1d(192, 192, kernel_size=(1,), stride=(1,))
                  )
                )
              )
              (global_mlp): LinearMLP(
                (mlp): Sequential(
                  (linear0): Linear(in_features=192, out_features=192, bias=True)
                  (act0): ReLU()
                  (linear1): Linear(in_features=192, out_features=192, bias=True)
                )
              )
            )
            (4): PointNetV0(
              (conv_mlp): ConvMLP(
                (mlp): Sequential(
                  (layer0): ConvModule(
                    (conv): Conv1d(60, 192, kernel_size=(1,), stride=(1,))
                    (activate): ReLU(inplace=True)
                  )
                  (layer1): ConvModule(
                    (conv): Conv1d(192, 192, kernel_size=(1,), stride=(1,))
                  )
                )
              )
              (global_mlp): LinearMLP(
                (mlp): Sequential(
                  (linear0): Linear(in_features=192, out_features=192, bias=True)
                  (act0): ReLU()
                  (linear1): Linear(in_features=192, out_features=192, bias=True)
                )
              )
            )
          )
          (attn): TransformerEncoder(
            (attn_blocks): ModuleList(
              (0): TransformerBlock(
                (attn): MultiHeadSelfAttention(
                  (dropout): Dropout(p=0.1, inplace=False)
                )
                (mlp): LinearMLP(
                  (mlp): Sequential(
                    (linear0): Linear(in_features=192, out_features=768, bias=True)
                    (act0): ReLU()
                    (linear1): Linear(in_features=768, out_features=192, bias=True)
                  )
                )
                (ln): LayerNorm((192,), eps=1e-05, elementwise_affine=True)
                (dropout): Dropout(p=0.1, inplace=False)
              )
              (1): TransformerBlock(
                (attn): MultiHeadSelfAttention(
                  (dropout): Dropout(p=0.1, inplace=False)
                )
                (mlp): LinearMLP(
                  (mlp): Sequential(
                    (linear0): Linear(in_features=192, out_features=768, bias=True)
                    (act0): ReLU()
                    (linear1): Linear(in_features=768, out_features=192, bias=True)
                  )
                )
                (ln): LayerNorm((192,), eps=1e-05, elementwise_affine=True)
                (dropout): Dropout(p=0.1, inplace=False)
              )
            )
            (pooling): AttentionPooling(
              (dropout): Identity()
            )
          )
          (state_mlp): LinearMLP(
            (mlp): Sequential(
              (linear0): Linear(in_features=51, out_features=192, bias=True)
              (act0): ReLU()
              (linear1): Linear(in_features=192, out_features=192, bias=True)
            )
          )
          (global_mlp1): LinearMLP(
            (mlp): Sequential(
              (linear0): Linear(in_features=252, out_features=128, bias=True)
              (act0): ReLU()
              (linear1): Linear(in_features=128, out_features=3, bias=True)
            )
          )
          (global_mlp2): LinearMLP(
            (mlp): Sequential(
              (linear0): Linear(in_features=243, out_features=128, bias=True)
              (act0): ReLU()
              (linear1): Linear(in_features=128, out_features=39, bias=True)
            )
          )
        )
      )
    )
  )
  (target_critic): CustomDataParallel(
    (module): ContinuousValue(
      (values): ModuleList(
        (0): PointNetWithInstanceInfoV0(
          (pcd_pns): ModuleList(
            (0): PointNetV0(
              (conv_mlp): ConvMLP(
                (mlp): Sequential(
                  (layer0): ConvModule(
                    (conv): Conv1d(60, 192, kernel_size=(1,), stride=(1,))
                    (activate): ReLU(inplace=True)
                  )
                  (layer1): ConvModule(
                    (conv): Conv1d(192, 192, kernel_size=(1,), stride=(1,))
                  )
                )
              )
              (global_mlp): LinearMLP(
                (mlp): Sequential(
                  (linear0): Linear(in_features=192, out_features=192, bias=True)
                  (act0): ReLU()
                  (linear1): Linear(in_features=192, out_features=192, bias=True)
                )
              )
            )
            (1): PointNetV0(
              (conv_mlp): ConvMLP(
                (mlp): Sequential(
                  (layer0): ConvModule(
                    (conv): Conv1d(60, 192, kernel_size=(1,), stride=(1,))
                    (activate): ReLU(inplace=True)
                  )
                  (layer1): ConvModule(
                    (conv): Conv1d(192, 192, kernel_size=(1,), stride=(1,))
                  )
                )
              )
              (global_mlp): LinearMLP(
                (mlp): Sequential(
                  (linear0): Linear(in_features=192, out_features=192, bias=True)
                  (act0): ReLU()
                  (linear1): Linear(in_features=192, out_features=192, bias=True)
                )
              )
            )
            (2): PointNetV0(
              (conv_mlp): ConvMLP(
                (mlp): Sequential(
                  (layer0): ConvModule(
                    (conv): Conv1d(60, 192, kernel_size=(1,), stride=(1,))
                    (activate): ReLU(inplace=True)
                  )
                  (layer1): ConvModule(
                    (conv): Conv1d(192, 192, kernel_size=(1,), stride=(1,))
                  )
                )
              )
              (global_mlp): LinearMLP(
                (mlp): Sequential(
                  (linear0): Linear(in_features=192, out_features=192, bias=True)
                  (act0): ReLU()
                  (linear1): Linear(in_features=192, out_features=192, bias=True)
                )
              )
            )
            (3): PointNetV0(
              (conv_mlp): ConvMLP(
                (mlp): Sequential(
                  (layer0): ConvModule(
                    (conv): Conv1d(60, 192, kernel_size=(1,), stride=(1,))
                    (activate): ReLU(inplace=True)
                  )
                  (layer1): ConvModule(
                    (conv): Conv1d(192, 192, kernel_size=(1,), stride=(1,))
                  )
                )
              )
              (global_mlp): LinearMLP(
                (mlp): Sequential(
                  (linear0): Linear(in_features=192, out_features=192, bias=True)
                  (act0): ReLU()
                  (linear1): Linear(in_features=192, out_features=192, bias=True)
                )
              )
            )
            (4): PointNetV0(
              (conv_mlp): ConvMLP(
                (mlp): Sequential(
                  (layer0): ConvModule(
                    (conv): Conv1d(60, 192, kernel_size=(1,), stride=(1,))
                    (activate): ReLU(inplace=True)
                  )
                  (layer1): ConvModule(
                    (conv): Conv1d(192, 192, kernel_size=(1,), stride=(1,))
                  )
                )
              )
              (global_mlp): LinearMLP(
                (mlp): Sequential(
                  (linear0): Linear(in_features=192, out_features=192, bias=True)
                  (act0): ReLU()
                  (linear1): Linear(in_features=192, out_features=192, bias=True)
                )
              )
            )
          )
          (attn): TransformerEncoder(
            (attn_blocks): ModuleList(
              (0): TransformerBlock(
                (attn): MultiHeadSelfAttention(
                  (dropout): Dropout(p=0.1, inplace=False)
                )
                (mlp): LinearMLP(
                  (mlp): Sequential(
                    (linear0): Linear(in_features=192, out_features=768, bias=True)
                    (act0): ReLU()
                    (linear1): Linear(in_features=768, out_features=192, bias=True)
                  )
                )
                (ln): LayerNorm((192,), eps=1e-05, elementwise_affine=True)
                (dropout): Dropout(p=0.1, inplace=False)
              )
              (1): TransformerBlock(
                (attn): MultiHeadSelfAttention(
                  (dropout): Dropout(p=0.1, inplace=False)
                )
                (mlp): LinearMLP(
                  (mlp): Sequential(
                    (linear0): Linear(in_features=192, out_features=768, bias=True)
                    (act0): ReLU()
                    (linear1): Linear(in_features=768, out_features=192, bias=True)
                  )
                )
                (ln): LayerNorm((192,), eps=1e-05, elementwise_affine=True)
                (dropout): Dropout(p=0.1, inplace=False)
              )
            )
            (pooling): AttentionPooling(
              (dropout): Identity()
            )
          )
          (state_mlp): LinearMLP(
            (mlp): Sequential(
              (linear0): Linear(in_features=51, out_features=192, bias=True)
              (act0): ReLU()
              (linear1): Linear(in_features=192, out_features=192, bias=True)
            )
          )
          (global_mlp): LinearMLP(
            (mlp): Sequential(
              (linear0): Linear(in_features=192, out_features=128, bias=True)
              (act0): ReLU()
              (linear1): Linear(in_features=128, out_features=1, bias=True)
            )
          )
        )
        (1): PointNetWithInstanceInfoV0(
          (pcd_pns): ModuleList(
            (0): PointNetV0(
              (conv_mlp): ConvMLP(
                (mlp): Sequential(
                  (layer0): ConvModule(
                    (conv): Conv1d(60, 192, kernel_size=(1,), stride=(1,))
                    (activate): ReLU(inplace=True)
                  )
                  (layer1): ConvModule(
                    (conv): Conv1d(192, 192, kernel_size=(1,), stride=(1,))
                  )
                )
              )
              (global_mlp): LinearMLP(
                (mlp): Sequential(
                  (linear0): Linear(in_features=192, out_features=192, bias=True)
                  (act0): ReLU()
                  (linear1): Linear(in_features=192, out_features=192, bias=True)
                )
              )
            )
            (1): PointNetV0(
              (conv_mlp): ConvMLP(
                (mlp): Sequential(
                  (layer0): ConvModule(
                    (conv): Conv1d(60, 192, kernel_size=(1,), stride=(1,))
                    (activate): ReLU(inplace=True)
                  )
                  (layer1): ConvModule(
                    (conv): Conv1d(192, 192, kernel_size=(1,), stride=(1,))
                  )
                )
              )
              (global_mlp): LinearMLP(
                (mlp): Sequential(
                  (linear0): Linear(in_features=192, out_features=192, bias=True)
                  (act0): ReLU()
                  (linear1): Linear(in_features=192, out_features=192, bias=True)
                )
              )
            )
            (2): PointNetV0(
              (conv_mlp): ConvMLP(
                (mlp): Sequential(
                  (layer0): ConvModule(
                    (conv): Conv1d(60, 192, kernel_size=(1,), stride=(1,))
                    (activate): ReLU(inplace=True)
                  )
                  (layer1): ConvModule(
                    (conv): Conv1d(192, 192, kernel_size=(1,), stride=(1,))
                  )
                )
              )
              (global_mlp): LinearMLP(
                (mlp): Sequential(
                  (linear0): Linear(in_features=192, out_features=192, bias=True)
                  (act0): ReLU()
                  (linear1): Linear(in_features=192, out_features=192, bias=True)
                )
              )
            )
            (3): PointNetV0(
              (conv_mlp): ConvMLP(
                (mlp): Sequential(
                  (layer0): ConvModule(
                    (conv): Conv1d(60, 192, kernel_size=(1,), stride=(1,))
                    (activate): ReLU(inplace=True)
                  )
                  (layer1): ConvModule(
                    (conv): Conv1d(192, 192, kernel_size=(1,), stride=(1,))
                  )
                )
              )
              (global_mlp): LinearMLP(
                (mlp): Sequential(
                  (linear0): Linear(in_features=192, out_features=192, bias=True)
                  (act0): ReLU()
                  (linear1): Linear(in_features=192, out_features=192, bias=True)
                )
              )
            )
            (4): PointNetV0(
              (conv_mlp): ConvMLP(
                (mlp): Sequential(
                  (layer0): ConvModule(
                    (conv): Conv1d(60, 192, kernel_size=(1,), stride=(1,))
                    (activate): ReLU(inplace=True)
                  )
                  (layer1): ConvModule(
                    (conv): Conv1d(192, 192, kernel_size=(1,), stride=(1,))
                  )
                )
              )
              (global_mlp): LinearMLP(
                (mlp): Sequential(
                  (linear0): Linear(in_features=192, out_features=192, bias=True)
                  (act0): ReLU()
                  (linear1): Linear(in_features=192, out_features=192, bias=True)
                )
              )
            )
          )
          (attn): TransformerEncoder(
            (attn_blocks): ModuleList(
              (0): TransformerBlock(
                (attn): MultiHeadSelfAttention(
                  (dropout): Dropout(p=0.1, inplace=False)
                )
                (mlp): LinearMLP(
                  (mlp): Sequential(
                    (linear0): Linear(in_features=192, out_features=768, bias=True)
                    (act0): ReLU()
                    (linear1): Linear(in_features=768, out_features=192, bias=True)
                  )
                )
                (ln): LayerNorm((192,), eps=1e-05, elementwise_affine=True)
                (dropout): Dropout(p=0.1, inplace=False)
              )
              (1): TransformerBlock(
                (attn): MultiHeadSelfAttention(
                  (dropout): Dropout(p=0.1, inplace=False)
                )
                (mlp): LinearMLP(
                  (mlp): Sequential(
                    (linear0): Linear(in_features=192, out_features=768, bias=True)
                    (act0): ReLU()
                    (linear1): Linear(in_features=768, out_features=192, bias=True)
                  )
                )
                (ln): LayerNorm((192,), eps=1e-05, elementwise_affine=True)
                (dropout): Dropout(p=0.1, inplace=False)
              )
            )
            (pooling): AttentionPooling(
              (dropout): Identity()
            )
          )
          (state_mlp): LinearMLP(
            (mlp): Sequential(
              (linear0): Linear(in_features=51, out_features=192, bias=True)
              (act0): ReLU()
              (linear1): Linear(in_features=192, out_features=192, bias=True)
            )
          )
          (global_mlp): LinearMLP(
            (mlp): Sequential(
              (linear0): Linear(in_features=192, out_features=128, bias=True)
              (act0): ReLU()
              (linear1): Linear(in_features=128, out_features=1, bias=True)
            )
          )
        )
      )
    )
  )
)
OpenCabinetDrawer-v0 - INFO - 2022-05-04 20:54:14 - Rollout state dim: {'pointcloud': {'rgb': (8, 1200, 3), 'xyz': (8, 1200, 3), 'seg': (8, 1200, 3)}, 'state': (8, 38)}, action dim: 8
OpenCabinetDrawer-v0 - INFO - 2022-05-04 20:55:35 - Finish 4000 warm-up steps!
OpenCabinetDrawer-v0 - INFO - 2022-05
…
