…
replay_cfg = dict(type='ReplayMemory', capacity=1000000)
work_dir = './work_dirs/OpenCabinetDrawer_1000_link_0-v0/SAC'

OpenCabinetDrawer_1000_link_0-v0 - INFO - 2022-03-06 15:08:10 - Set random seed to 0
OpenCabinetDrawer_1000_link_0-v0 - INFO - 2022-03-06 15:08:15 - State shape:75, action shape:Box(-1.0, 1.0, (13,), float32)
OpenCabinetDrawer_1000_link_0-v0 - INFO - 2022-03-06 15:08:20 - We do not use distributed training, but we support data parallel in torch
OpenCabinetDrawer_1000_link_0-v0 - INFO - 2022-03-06 15:08:20 - SAC(
  (policy): ContinuousPolicy(
    (backbone): LinearMLP(
      (mlp): Sequential(
        (linear0): Linear(in_features=75, out_features=256, bias=True)
        (act0): ReLU()
        (linear1): Linear(in_features=256, out_features=256, bias=True)
        (act1): ReLU()
        (linear2): Linear(in_features=256, out_features=256, bias=True)
        (act2): ReLU()
        (linear3): Linear(in_features=256, out_features=26, bias=True)
      )
    )
    (policy_head): GaussianHead()
  )
  (critic): ContinuousValue(
    (values): ModuleList(
      (0): LinearMLP(
        (mlp): Sequential(
          (linear0): Linear(in_features=88, out_features=256, bias=True)
          (act0): ReLU()
          (linear1): Linear(in_features=256, out_features=256, bias=True)
          (act1): ReLU()
          (linear2): Linear(in_features=256, out_features=256, bias=True)
          (act2): ReLU()
          (linear3): Linear(in_features=256, out_features=1, bias=True)
        )
      )
      (1): LinearMLP(
        (mlp): Sequential(
          (linear0): Linear(in_features=88, out_features=256, bias=True)
          (act0): ReLU()
          (linear1): Linear(in_features=256, out_features=256, bias=True)
          (act1): ReLU()
          (linear2): Linear(in_features=256, out_features=256, bias=True)
          (act2): ReLU()
          (linear3): Linear(in_features=256, out_features=1, bias=True)
        )
      )
    )
  )
  (target_critic): ContinuousValue(
    (values): ModuleList(
      (0): LinearMLP(
        (mlp): Sequential(
          (linear0): Linear(in_features=88, out_features=256, bias=True)
          (act0): ReLU()
          (linear1): Linear(in_features=256, out_features=256, bias=True)
          (act1): ReLU()
          (linear2): Linear(in_features=256, out_features=256, bias=True)
          (act2): ReLU()
          (linear3): Linear(in_features=256, out_features=1, bias=True)
        )
      )
      (1): LinearMLP(
        (mlp): Sequential(
          (linear0): Linear(in_features=88, out_features=256, bias=True)
          (act0): ReLU()
          (linear1): Linear(in_features=256, out_features=256, bias=True)
          (act1): ReLU()
          (linear2): Linear(in_features=256, out_features=256, bias=True)
          (act2): ReLU()
          (linear3): Linear(in_features=256, out_features=1, bias=True)
        )
      )
    )
  )
)
OpenCabinetDrawer_1000_link_0-v0 - INFO - 2022-03-06 15:08:20 - Rollout state dim: (8, 75), action dim: 8
OpenCabinetDrawer_1000_link_0-v0 - INFO - 2022-03-06 15:08:33 - Finish 4000 warm-up steps!
OpenCabinetDrawer_1000_link_0-v0 - INFO - 2022-03-06 15:08:59 - 5600/1000000(1%) Passed time:26s ETA:4h33m33s episode_length:200.00 episode_reward:-2690.74 critic_loss:0.49 max_critic_abs_err:2.64 policy_loss:15.45 alpha:0.80 alpha_loss:17.37 q:-22.49 q_target:-22.38 log_pi:-8.82 memory:8.38G gpu_mem_ratio:79.0% gpu_mem:8.51G gpu_mem_this:1.73G gpu_util:8%
…
